Assets/simple_model.onnx (onnx, 50508 bytes, 3 tensors)

fc1.weight f4 [5, 10]
00000000: e7a2 083e 4470 5fbe 534a 503e e4b6 fd3c
00000010: cd81 09be 3bc6 133e a2f6 b03c 627f 823e
00000020: dfb7 d23c 2147 64be babf 96bc 4676 93be
00000030: 7a3d 2cbe 3c72 963e d7b6 19be 6e3c 9dbe
00000040: a975 a03e f9fe cd3d e93b 74be 61ca d03d
00000050: 7873 5fbe 0365 74be e609 37be 4241 693e
00000060: cfd6 56bc 9a60 843e 6f5d dc3d 2d58 513e
00000070: 3448 4dbe c9ef f9bc 22be 16be aa70 bfbc
00000080: ad62 68be 5c85 63bb bdd4 95be a56c 943d
00000090: 5138 e6bd a396 033c fc35 293c 7456 fcbd
000000a0: 7d4a 0f3e 11fd 05be cc07 9bbe 42d4 0cbd
000000b0: 04ea 95be ac84 2d3d 9cca d23d 2509 2d3d
000000c0: 3441 7b3e 547f 423d
0.13343392 -0.2182017 0.20340852 0.030970998 -0.13428421 0.14431088 0.021601979 0.2548781
0.025722442 -0.22292759 -0.01840197 -0.28801173 -0.16820326 0.2938403 -0.15011154 -0.30710167
0.31339768 0.10058398 -0.23850979 0.10194851 -0.21821392 -0.23866658 -0.1787487 0.227788
-0.013112738 0.2585495 0.107600085 0.20443793 -0.20047075 -0.030509846 -0.14720967 -0.023369152
-0.22693892 -0.003471694 -0.2926387 0.07247285 -0.1124121 0.00803152 0.010327812 -0.12321177
0.13993259 -0.13084818 -0.30279386 -0.034382112 -0.29280102 0.042362854 0.10292551 0.04224505
0.24536592 0.04748471

fc1.bias f4 [5]
00000000: 1c69 a5bc 22b4 e83d 367a 0fbe eca2 c2bd
00000010: ea66 3e3e
-0.020191722 0.113624826 -0.14011464 -0.09503731 0.18593946

fc2.weight f4 [1, 5]
00000000: 76b5 513e 26a9 42be 21b5 a5be 0cb9 9f3e
00000010: fc7a c7bd
0.20479378 -0.19009838 -0.32364753 0.31195867 -0.09740254
